…
        min_scale: 0.3
        max_scale: 1
        min_aspect_ratio: 0.8
        max_aspect_ratio: 1.5
      }
      sample_constraint {
        min_jaccard_overlap: 0.9
      }
      max_sample: 1
      max_trials: 50
    }
    batch_sampler {
      sampler {
        min_scale: 0.3
        max_scale: 1
        min_aspect_ratio: 0.8
        max_aspect_ratio: 1.5
      }
      sample_constraint {
        max_jaccard_overlap: 1
      }
      max_sample: 1
      max_trials: 50
    }
    label_map_file: "/media/hdd/lbl_trainData/share/originVoc/labelmap_voc.prototxt"
  }
}
layer {
  name: "stem1"
  type: "Convolution"
  bottom: "data"
  top: "stem1"
  convolution_param {
    num_output: 32
    pad: 1
    kernel_size: 3
    stride: 2
    weight_filler {
      type: "xavier"
    }
    bias_filler {
      type: "constant"
    }
  }
}
layer {
  name: "stem1_int8"
  type: "ConvInt8withKL"
  bottom: "data"
  bottom: "stem1"
  bottom: "label"
  top: "stem1_int8"
  propagate_down: false
  propagate_down: false
  propagate_down: false
  convolution_param {
    num_output: 32
    pad: 1
    kernel_size: 3
    stride: 2
    weight_filler {
      type: "xavier"
    }
    bias_filler {
      type: "constant"
    }
  }
  conv_int8_withkl_param {
    pre_test_batches: 100
    input_adjust_segment_count: 10
    input_adjust_each_count: 200
    weight_adjust_segment_count: 50
    weight_adjust_each_count: 200
    weight_model_path: "/media/hdd/lbl_trainData/dataBase/ssdpelee/pelee_nobn.caffemodel"
    layer_fp32_name: "stem1"
  }
}
layer {
  name: "dummyEnd"
  type: "InnerProduct"
  bottom: "stem1_int8"
  top: "dummyEnd"
  inner_product_param {
    num_output: 1
    weight_filler {
      type: "xavier"
    }
    bias_filler {
      type: "constant"
    }
  }
}
I0718 11:14:05.732852 32249 layer_factory.hpp:77] Creating layer data
I0718 11:14:05.733650 32249 net.cpp:100] Creating Layer data
I0718 11:14:05.733676 32249 net.cpp:408] data -> data
I0718 11:14:05.733747 32249 net.cpp:408] data -> label
I0718 11:14:05.735436 32278 db_lmdb.cpp:35] Opened lmdb /media/hdd/lbl_trainData/share/originVoc/lmdb/VOC2007_trainval_lmdb
I0718 11:14:05.760248 32249 annotated_data_layer.cpp:62] output data size: 1,3,304,304
I0718 11:14:05.768009 32249 net.cpp:150] Setting up data
I0718 11:14:05.768049 32249 net.cpp:157] Top shape: 1 3 304 304 (277248)
I0718 11:14:05.768059 32249 net.cpp:157] Top shape: 1 1 5 8 (40)
I0718 11:14:05.768064 32249 net.cpp:165] Memory required for data: 1109152
I0718 11:14:05.768079 32249 layer_factory.hpp:77] Creating layer data_data_0_split
I0718 11:14:05.768105 32249 net.cpp:100] Creating Layer data_data_0_split
I0718 11:14:05.768116 32249 net.cpp:434] data_data_0_split <- data
I0718 11:14:05.768142 32249 net.cpp:408] data_data_0_split -> data_data_0_split_0
I0718 11:14:05.768160 32249 net.cpp:408] data_data_0_split -> data_data_0_split_1
I0718 11:14:05.768406 32249 net.cpp:150] Setting up data_data_0_split
I0718 11:14:05.768463 32249 net.cpp:157] Top shape: 1 3 304 304 (277248)
I0718 11:14:05.768476 32249 net.cpp:157] Top shape: 1 3 304 304 (277248)
I0718 11:14:05.768486 32249 net.cpp:165] Memory required for data: 3327136
I0718 11:14:05.768497 32249 layer_factory.hpp:77] Creating layer stem1
I0718 11:14:05.768550 32249 net.cpp:100] Creating Layer stem1
I0718 11:14:05.768563 32249 net.cpp:434] stem1 <- data_data_0_split_0
I0718 11:14:05.768580 32249 net.cpp:408] stem1 -> stem1
I0718 11:14:05.773398 32249 net.cpp:150] Setting up stem1
I0718 11:14:05.773437 32249 net.cpp:157] Top shape: 1 32 152 152 (739328)
I0718 11:14:05.773447 32249 net.cpp:165] Memory required for data: 6284448
I0718 11:14:05.773479 32249 layer_factory.hpp:77] Creating layer stem1_int8
I0718 11:14:05.773524 32249 net.cpp:100] Creating Layer stem1_int8
I0718 11:14:05.773536 32249 net.cpp:434] stem1_int8 <- data_data_0_split_1
I0718 11:14:05.773545 32249 net.cpp:434] stem1_int8 <- stem1
I0718 11:14:05.773558 32249 net.cpp:434] stem1_int8 <- label
I0718 11:14:05.773576 32249 net.cpp:408] stem1_int8 -> stem1_int8
I0718 11:14:05.774026 32249 convInt8_withKL_layer.cpp:191]  **  the weights of stem1 will be extracted from /media/hdd/lbl_trainData/dataBase/ssdpelee/pelee_nobn.caffemodel
I0718 11:14:05.774451 32249 net.cpp:150] Setting up stem1_int8
I0718 11:14:05.774468 32249 net.cpp:157] Top shape: 1 32 152 152 (739328)
I0718 11:14:05.774475 32249 net.cpp:165] Memory required for data: 9241760
I0718 11:14:05.774494 32249 layer_factory.hpp:77] Creating layer dummyEnd
I0718 11:14:05.774513 32249 net.cpp:100] Creating Layer dummyEnd
I0718 11:14:05.774520 32249 net.cpp:434] dummyEnd <- stem1_int8
I0718 11:14:05.774534 32249 net.cpp:408] dummyEnd -> dummyEnd
I0718 11:14:05.786140 32249 net.cpp:150] Setting up dummyEnd
I0718 11:14:05.786170 32249 net.cpp:157] Top shape: 1 1 (1)
I0718 11:14:05.786177 32249 net.cpp:165] Memory required for data: 9241764
I0718 11:14:05.786195 32249 net.cpp:228] dummyEnd does not need backward computation.
I0718 11:14:05.786203 32249 net.cpp:228] stem1_int8 does not need backward computation.
I0718 11:14:05.786211 32249 net.cpp:228] stem1 does not need backward computation.
I0718 11:14:05.786219 32249 net.cpp:228] data_data_0_split does not need backward computation.
…
