…
        min_scale: 0.3
        max_scale: 1
        min_aspect_ratio: 0.8
        max_aspect_ratio: 1.5
      }
      sample_constraint {
        min_jaccard_overlap: 0.9
      }
      max_sample: 1
      max_trials: 50
    }
    batch_sampler {
      sampler {
        min_scale: 0.3
        max_scale: 1
        min_aspect_ratio: 0.8
        max_aspect_ratio: 1.5
      }
      sample_constraint {
        max_jaccard_overlap: 1
      }
      max_sample: 1
      max_trials: 50
    }
    label_map_file: "/media/hdd/lbl_trainData/share/originVoc/labelmap_voc.prototxt"
  }
}
layer {
  name: "stem1"
  type: "Convolution"
  bottom: "data"
  top: "stem1"
  convolution_param {
    num_output: 32
    bias_term: false
    pad: 0
    kernel_size: 3
    stride: 1
    weight_filler {
      type: "xavier"
    }
    bias_filler {
      type: "constant"
    }
  }
}
layer {
  name: "stem1_int8"
  type: "ConvInt8withKL"
  bottom: "data"
  bottom: "stem1"
  bottom: "label"
  top: "stem1_int8"
  propagate_down: false
  propagate_down: false
  propagate_down: false
  convolution_param {
    num_output: 32
    bias_term: false
    pad: 0
    kernel_size: 3
    stride: 1
    weight_filler {
      type: "xavier"
    }
    bias_filler {
      type: "constant"
    }
  }
  conv_int8_withkl_param {
    pre_test_batches: 10
    input_adjust_segment_count: 10
    input_adjust_each_count: 200
    weight_adjust_segment_count: 50
    weight_adjust_each_count: 200
    weight_model_path: "/media/hdd/lbl_trainData/git/caffe_nvidia_quantize/examples/nvidia_quantize/nobias.caffemodel"
    layer_fp32_name: "stem1"
  }
}
I0724 16:01:57.423954 26898 layer_factory.hpp:77] Creating layer data
I0724 16:01:57.425168 26898 net.cpp:100] Creating Layer data
I0724 16:01:57.425191 26898 net.cpp:408] data -> data
I0724 16:01:57.425438 26898 net.cpp:408] data -> label
I0724 16:01:57.427084 26925 db_lmdb.cpp:35] Opened lmdb /media/hdd/lbl_trainData/share/originVoc/lmdb/VOC2007_trainval_lmdb
I0724 16:01:57.462781 26898 annotated_data_layer.cpp:62] output data size: 1,3,304,304
I0724 16:01:57.470820 26898 net.cpp:150] Setting up data
I0724 16:01:57.470858 26898 net.cpp:157] Top shape: 1 3 304 304 (277248)
I0724 16:01:57.470870 26898 net.cpp:157] Top shape: 1 1 5 8 (40)
I0724 16:01:57.470876 26898 net.cpp:165] Memory required for data: 1109152
I0724 16:01:57.470896 26898 layer_factory.hpp:77] Creating layer data_data_0_split
I0724 16:01:57.470932 26898 net.cpp:100] Creating Layer data_data_0_split
I0724 16:01:57.470945 26898 net.cpp:434] data_data_0_split <- data
I0724 16:01:57.470974 26898 net.cpp:408] data_data_0_split -> data_data_0_split_0
I0724 16:01:57.470996 26898 net.cpp:408] data_data_0_split -> data_data_0_split_1
I0724 16:01:57.471201 26898 net.cpp:150] Setting up data_data_0_split
I0724 16:01:57.471254 26898 net.cpp:157] Top shape: 1 3 304 304 (277248)
I0724 16:01:57.471266 26898 net.cpp:157] Top shape: 1 3 304 304 (277248)
I0724 16:01:57.471276 26898 net.cpp:165] Memory required for data: 3327136
I0724 16:01:57.471285 26898 layer_factory.hpp:77] Creating layer stem1
I0724 16:01:57.471323 26898 net.cpp:100] Creating Layer stem1
I0724 16:01:57.471334 26898 net.cpp:434] stem1 <- data_data_0_split_0
I0724 16:01:57.471349 26898 net.cpp:408] stem1 -> stem1
I0724 16:01:57.474010 26898 net.cpp:150] Setting up stem1
I0724 16:01:57.474041 26898 net.cpp:157] Top shape: 1 32 302 302 (2918528)
I0724 16:01:57.474051 26898 net.cpp:165] Memory required for data: 15001248
I0724 16:01:57.474076 26898 layer_factory.hpp:77] Creating layer stem1_int8
I0724 16:01:57.474112 26898 net.cpp:100] Creating Layer stem1_int8
I0724 16:01:57.474124 26898 net.cpp:434] stem1_int8 <- data_data_0_split_1
I0724 16:01:57.474134 26898 net.cpp:434] stem1_int8 <- stem1
I0724 16:01:57.474143 26898 net.cpp:434] stem1_int8 <- label
I0724 16:01:57.474162 26898 net.cpp:408] stem1_int8 -> stem1_int8
I0724 16:01:57.474442 26898 convInt8_withKL_layer.cpp:196]  **  the weights of stem1 will be extracted from /media/hdd/lbl_trainData/git/caffe_nvidia_quantize/examples/nvidia_quantize/nobias.caffemodel
I0724 16:01:57.474771 26898 convInt8_withKL_layer.cpp:318] caffe_gpu_iGemm PARAM : 32 91204 27
I0724 16:01:57.474784 26898 net.cpp:150] Setting up stem1_int8
I0724 16:01:57.474795 26898 net.cpp:157] Top shape: 1 (1)
I0724 16:01:57.474804 26898 net.cpp:165] Memory required for data: 15001252
I0724 16:01:57.474820 26898 net.cpp:228] stem1_int8 does not need backward computation.
I0724 16:01:57.474831 26898 net.cpp:228] stem1 does not need backward computation.
I0724 16:01:57.474839 26898 net.cpp:228] data_data_0_split does not need backward computation.
I0724 16:01:57.474848 26898 net.cpp:228] data does not need backward computation.
…
