…
        min_scale: 0.3
        max_scale: 1
        min_aspect_ratio: 0.8
        max_aspect_ratio: 1.5
      }
      sample_constraint {
        min_jaccard_overlap: 0.9
      }
      max_sample: 1
      max_trials: 50
    }
    batch_sampler {
      sampler {
        min_scale: 0.3
        max_scale: 1
        min_aspect_ratio: 0.8
        max_aspect_ratio: 1.5
      }
      sample_constraint {
        max_jaccard_overlap: 1
      }
      max_sample: 1
      max_trials: 50
    }
    label_map_file: "/media/hdd/lbl_trainData/share/originVoc/labelmap_voc.prototxt"
  }
}
layer {
  name: "stem1"
  type: "Convolution"
  bottom: "data"
  top: "stem1"
  convolution_param {
    num_output: 32
    bias_term: false
    pad: 1
    kernel_size: 3
    stride: 2
    weight_filler {
      type: "xavier"
    }
    bias_filler {
      type: "constant"
    }
  }
}
layer {
  name: "stem1_int8"
  type: "ConvInt8withKL"
  bottom: "data"
  bottom: "stem1"
  bottom: "label"
  top: "stem1_int8"
  propagate_down: false
  propagate_down: false
  propagate_down: false
  convolution_param {
    num_output: 32
    bias_term: false
    pad: 1
    kernel_size: 3
    stride: 2
    weight_filler {
      type: "xavier"
    }
    bias_filler {
      type: "constant"
    }
  }
  conv_int8_withkl_param {
    pre_test_batches: 10
    input_adjust_segment_count: 10
    input_adjust_each_count: 200
    weight_adjust_segment_count: 50
    weight_adjust_each_count: 200
    weight_model_path: "/media/hdd/lbl_trainData/git/caffe_nvidia_quantize/examples/nvidia_quantize/nobias.caffemodel"
    layer_fp32_name: "stem1"
  }
}
I0719 16:24:11.316586 15663 layer_factory.hpp:77] Creating layer data
I0719 16:24:11.317270 15663 net.cpp:100] Creating Layer data
I0719 16:24:11.317296 15663 net.cpp:408] data -> data
I0719 16:24:11.317476 15663 net.cpp:408] data -> label
I0719 16:24:11.319180 15689 db_lmdb.cpp:35] Opened lmdb /media/hdd/lbl_trainData/share/originVoc/lmdb/VOC2007_trainval_lmdb
I0719 16:24:11.343729 15663 annotated_data_layer.cpp:62] output data size: 1,3,304,304
I0719 16:24:11.351603 15663 net.cpp:150] Setting up data
I0719 16:24:11.351645 15663 net.cpp:157] Top shape: 1 3 304 304 (277248)
I0719 16:24:11.351657 15663 net.cpp:157] Top shape: 1 1 5 8 (40)
I0719 16:24:11.351665 15663 net.cpp:165] Memory required for data: 1109152
I0719 16:24:11.351681 15663 layer_factory.hpp:77] Creating layer data_data_0_split
I0719 16:24:11.351709 15663 net.cpp:100] Creating Layer data_data_0_split
I0719 16:24:11.351722 15663 net.cpp:434] data_data_0_split <- data
I0719 16:24:11.351747 15663 net.cpp:408] data_data_0_split -> data_data_0_split_0
I0719 16:24:11.351766 15663 net.cpp:408] data_data_0_split -> data_data_0_split_1
I0719 16:24:11.351971 15663 net.cpp:150] Setting up data_data_0_split
I0719 16:24:11.352010 15663 net.cpp:157] Top shape: 1 3 304 304 (277248)
I0719 16:24:11.352021 15663 net.cpp:157] Top shape: 1 3 304 304 (277248)
I0719 16:24:11.352030 15663 net.cpp:165] Memory required for data: 3327136
I0719 16:24:11.352041 15663 layer_factory.hpp:77] Creating layer stem1
I0719 16:24:11.352077 15663 net.cpp:100] Creating Layer stem1
I0719 16:24:11.352088 15663 net.cpp:434] stem1 <- data_data_0_split_0
I0719 16:24:11.352107 15663 net.cpp:408] stem1 -> stem1
I0719 16:24:11.354681 15663 net.cpp:150] Setting up stem1
I0719 16:24:11.354715 15663 net.cpp:157] Top shape: 1 32 152 152 (739328)
I0719 16:24:11.354725 15663 net.cpp:165] Memory required for data: 6284448
I0719 16:24:11.354753 15663 layer_factory.hpp:77] Creating layer stem1_int8
I0719 16:24:11.354789 15663 net.cpp:100] Creating Layer stem1_int8
I0719 16:24:11.354800 15663 net.cpp:434] stem1_int8 <- data_data_0_split_1
I0719 16:24:11.354810 15663 net.cpp:434] stem1_int8 <- stem1
I0719 16:24:11.354820 15663 net.cpp:434] stem1_int8 <- label
I0719 16:24:11.354836 15663 net.cpp:408] stem1_int8 -> stem1_int8
I0719 16:24:11.355084 15663 convInt8_withKL_layer.cpp:192]  **  the weights of stem1 will be extracted from /media/hdd/lbl_trainData/git/caffe_nvidia_quantize/examples/nvidia_quantize/nobias.caffemodel
I0719 16:24:11.355393 15663 net.cpp:150] Setting up stem1_int8
I0719 16:24:11.355410 15663 net.cpp:157] Top shape: 1 (1)
I0719 16:24:11.355417 15663 net.cpp:165] Memory required for data: 6284452
I0719 16:24:11.355433 15663 net.cpp:228] stem1_int8 does not need backward computation.
I0719 16:24:11.355444 15663 net.cpp:228] stem1 does not need backward computation.
I0719 16:24:11.355453 15663 net.cpp:228] data_data_0_split does not need backward computation.
I0719 16:24:11.355463 15663 net.cpp:228] data does not need backward computation.
…
